quantization/saved_model/model_2.tflite (tflite, 39944 bytes, 6 tensors)

sequential_8/dense_8/BiasAdd/ReadVariableOp f4 [10]
000000 80 bf e6 3b 5b 3c 90 3d c9 3f e3 bb ab 7f b3 bc
       0.0070418715 0.07042762 -0.006935094 -0.021911463
000010 df b3 ec bc ac 3b af bb b2 73 1d bb 0b dc 3b 3a
       -0.028894363 -0.0053476896 -0.0024025259 0.0007166273
000020 36 1b 3b bc fd ba 7b 3b
       -0.011420062 0.0038411014

sequential_8/conv2d_16/BiasAdd/ReadVariableOp f4 [32]
000000 b6 8d cd bc 21 9f 43 3d ae 31 c5 ba b9 28 f3 ba
       -0.025091987 0.04775918 -0.0015044713 -0.0018551565
000010 91 e5 14 bd 5d 7c 2a bb f7 68 75 bc 93 e7 b9 b9
       -0.036351744 -0.0026014068 -0.014978639 -0.00035458486
000020 e0 27 59 bd 38 c5 d1 bb fe 7e ed 3d 07 0c 0d bc
       -0.053016543 -0.006401684 0.115964875 -0.008608825
000030 b5 ba ce bc 3a 67 36 bc ff a4 90 3c bc bb 59 bb
       -0.025235513 -0.01113301 0.017656801 -0.003322347
000040 b1 92 9a bc 21 fc 5c bb a5 34 8e bc 39 13 89 bb
       -0.018868776 -0.0033719616 -0.017359087 -0.0041831997
000050 9c 9e 28 3d 39 2b f1 3d 1b 12 6f bc e5 37 fd bc
       0.041166887 0.11775822 -0.014591719 -0.030910442
000060 ea 7e 22 3d 24 f4 be ba 8a 1a 3c bb 83 cd 86 3c
       0.039671816 -0.0014568609 -0.0028702342 0.016455417
000070 2b d7 9c bb 23 fe fa bb 1d d7 cb bc 15 75 0f 3e
       -0.004786392 -0.00765969 -0.024882847 0.14009507

sequential_8/conv2d_17/BiasAdd/ReadVariableOp f4 [64]
000000 a2 51 0e bd d3 b7 22 bd db f9 64 bd 5a bf 46 bc
       -0.03474582 -0.03972609 -0.055902343 -0.012130583
000010 35 31 5c bd 49 15 9b bc 3e e7 ff bc df 49 12 bd
       -0.053757865 -0.018931048 -0.031238195 -0.03571498
000020 2d 88 a6 bd 44 6e 37 bd dd 57 e7 bc 34 b6 b1 3c
       -0.08131442 -0.044782892 -0.028240139 0.021693327
000030 91 0a 37 bc de bd 96 3a 3d d4 66 bc 61 3e 38 3c
       -0.011171953 0.0011500677 -0.0140886875 0.011245341
000040 d0 73 57 bc 59 eb 3c bd b5 d1 c5 3b 67 24 25 bd
       -0.01315017 -0.046122883 0.006036962 -0.04031792
000050 35 4a 23 bd c5 43 45 bd 63 09 00 bd 2b 21 9d ba
       -0.03986569 -0.048160333 -0.031258952 -0.0011988034
000060 61 d8 8f bd b4 b8 37 b9 8d 04 8c bd 7b fb a6 bc
       -0.07023693 -0.00017521047 -0.068368055 -0.020383587
000070 3b 88 b5 bb 6a 2a 88 bd 54 72 34 3d d6 49 6d bb
       -0.0055399216 -0.06648715 0.044054344 -0.003620734
000080 3a b9 fe bc 30 f0 f3 bb a3 6a 5c bd b7 d2 4a bb
       -0.031094182 -0.007444404 -0.053812634 -0.003094835
000090 08 e9 ba bc 08 3b e4 bb f2 72 03 3c d2 de 91 bd
       -0.022816196 -0.006965045 0.008023011 -0.07122578
0000a0 3e fb 85 bc 34 0b 9a bc 2b 1b 04 bd 27 1f a8 bd
       -0.016355153 -0.01880417 -0.032252472 -0.08209067
0000b0 91 d8 60 bd e0 36 09 3d d1 d9 7e bd 17 72 4e bd
       -0.054894034 0.0334996 -0.062219445 -0.050401773
0000c0 8e 38 4c 3c b5 95 84 bd fd 53 25 3c 05 50 b7 3c
       0.012464656 -0.06473867 0.010090825 0.022377023
0000d0 d1 20 0f bb 74 8c 45 3c 15 2c ac bc 0f 18 04 bd
       -0.0021839628 0.012057412 -0.021017114 -0.032249507
0000e0 43 19 72 bd 0c 5e cf 3a 5a cd 39 bc 8b bc 60 bd
       -0.059106123 0.0015820875 -0.0113404635 -0.05486731
0000f0 e7 eb 5f bc b7 0b 75 3c 81 62 31 bd 1e ce 65 ba
       -0.013667083 0.014956406 -0.04330683 -0.00087663706

sequential_8/conv2d_16/Conv2D f4 [32, 3, 3, 1]
000000 b9 be 60 be df d8 b6 3d 66 83 2c 3e 36 0b cb bd
       -0.21947755 0.08928084 0.16847 -0.09914248
000010 d3 f9 b9 bd 2b 8a 90 3d 29 d8 03 3d 5c ba 4f bc
       -0.09080853 0.070576034 0.03218857 -0.012678709
000020 7d da 38 3e 60 f6 95 3e 11 cf 6d bd c7 60 de be
       0.18052097 0.29289532 -0.058058802 -0.4343321
000030 eb 45 a0 3e 3c d9 e3 3d e0 ba de be 14 fd 12 3e
       0.31303343 0.111254185 -0.4350195 0.14354354
000040 3a cf 39 3e a5 f5 46 be 67 de c8 3d a4 69 12 3e
       0.18145457 -0.19429643 0.09808045 0.14298111
000050 2d 70 89 3e 24 8c 45 bd 7c 34 89 bd 50 a2 2b 3e
       0.26843396 -0.04822935 -0.06699464 0.16761136
000060 38 4b cf bd f6 50 98 be 95 c9 33 be f3 ab 83 be
       -0.10121769 -0.29749268 -0.17557366 -0.25717124
000070 a4 c4 58 bd 1d b6 4f 3e 1d 53 8d be 21 8b 1a 3d
       -0.052921906 0.20284314 -0.27602473 0.03773034
000080 83 bf dc 3d 64 76 92 bd 98 a2 2f 3c 39 d3 83 3e
       0.107787155 -0.071514875 0.010719918 0.25747088
000090 a8 5e c5 3d b9 aa a9 3d d7 9c eb 3d 75 c6 1b 3e
       0.09637195 0.08284516 0.11504524 0.15212424
0000a0 69 e2 9e bc 81 62 40 3e 02 3a 14 3e 91 92 44 3e
       -0.01939507 0.18787576 0.14475253 0.19196536
0000b0 91 a3 d1 3d 5d 63 77 be c0 92 a6 be ec 62 85 bd
       0.10236276 -0.24158998 -0.32533836 -0.065130085
0000c0 2e 0f 89 3d d9 3a c0 3d eb 7b 61 3e e1 86 4b 3e
       0.066923484 0.09386224 0.22019927 0.19875671
0000d0 26 4f e5 3d 8c 1d e0 bc cc da 0f 3e af 7f 7d bd
       0.11196737 -0.027357839 0.14048308 -0.061889347
0000e0 be ff b3 3d 16 b0 87 3d 0b cf 9c 3d 59 a5 ff 3b
       0.08789013 0.066253826 0.07656678 0.0078016934
0000f0 7c 2b 14 3e 78 11 52 bc 03 e0 f8 3d eb 71 a8 be
       0.14469713 -0.012821548 0.12152102 -0.32899413
000100 81 6a 3b be aa d5 ed 3d 49 93 6e be d3 ab 36 bc
       -0.18302347 0.11613019 -0.23298372 -0.0111493645
000110 e0 6e 7d 3e a3 86 9f bd 21 98 37 3e c6 15 52 3e
       0.24749327 -0.07789352 0.17929126 0.20516118
000120 7a 39 da 3d 2a 0c e3 3d c9 53 77 bd 1f 99 dd bd
       0.10655494 0.110863045 -0.060382638 -0.10820221
000130 cd ab 03 bd a6 2b 04 3e 21 83 67 be 50 5d 25 3e
       -0.032146264 0.12907276 -0.22608615 0.16148877
000140 04 b9 24 3e 0e 3b 0d 3e 7a c9 08 3d 9d 99 32 3e
       0.16086203 0.13792059 0.033395268 0.17441411
000150 d1 85 6d 3e 17 93 aa 3d ea a4 fa 3d a6 9e a9 3d
       0.23195578 0.083288364 0.12238486 0.08282213
000160 13 57 09 be 16 e8 21 be 3f 88 d2 be fd e5 a7 be
       -0.13412122 -0.1581119 -0.41119573 -0.32792655
000170 c6 1c 3c be 27 6b 13 3e 2a 09 9e bd ea 1c ae be
       -0.18370351 0.14396344 -0.07716592 -0.34006435
000180 da 40 94 3e f6 eb df 3d 47 ad 88 3d bb ce 53 3e
       0.28955728 0.10933678 0.06673675 0.2068433
000190 a4 dd f3 3d ad 80 f4 3c 60 d0 cc bd b8 ef f0 3d
       0.11907509 0.029846514 -0.10000682 0.11764473
0001a0 a0 a4 c2 3d 12 d4 65 bc 5d 47 2f 3e 2f d8 01 3e
       0.09504056 -0.014027612 0.17117067 0.12680124
0001b0 27 61 2b 3e 91 c3 9c bc 69 3b 7a 3b b2 a0 2a 3d
       0.1673628 -0.019136222 0.0038182384 0.041657157
0001c0 f8 73 39 3e 3e 5a b3 3d 71 0e 4b be bb 2e dc 3d
       0.18110645 0.08757447 -0.19829728 0.10751101
0001d0 48 32 45 3b cd 44 f2 bd e1 ce 7f be 69 bf 02 3c
       0.0030089784 -0.11829529 -0.24981262 0.007980206
0001e0 3f 60 94 bd b2 97 49 3e 46 8a 47 3e b3 74 7a 3e
       -0.0724492 0.19686773 0.19486341 0.2445858
0001f0 d1 09 c9 3d d7 45 15 be 75 5d 16 3e 99 d7 6f 3e
       0.098163255 -0.14577423 0.14684089 0.23422088
000200 a1 c7 6d 3e fe 2f 63 3e 9e 3a 40 3e a0 c9 5e bd
       0.23220684 0.22186276 0.1877236 -0.054391503
000210 1b d3 8b be 86 89 d0 be d5 8f 99 be 37 96 ce 3d
       -0.27309498 -0.40729922 -0.29992548 0.10087245
000220 61 dc 3f 3e 0c c6 89 3e 2d 63 bb bd 3f f2 5b bc
       0.18736412 0.2690891 -0.09149776 -0.013424455
000230 17 15 26 3e aa 92 ac be 81 bd 61 be 06 44 2c be
       0.16218983 -0.33705646 -0.22044946 -0.16822824
000240 12 63 01 3e a0 9f 32 3d 53 ce 3a 3d 64 e0 16 3e
       0.12635449 0.04360926 0.045606922 0.14734036
000250 24 10 1b 3e 59 b2 a2 bc d1 cc 07 be 5b f0 42 3e
       0.15142876 -0.019860433 -0.13261725 0.19037001
000260 6f 87 5b 3e e3 df 8d be d6 a5 c1 be f4 f1 50 bd
       0.21438383 -0.27709875 -0.37821835 -0.051011994
000270 17 db 67 3d c9 38 34 3d 94 e4 a0 3d 17 d1 42 3e
       0.056605425 0.043999467 0.07856098 0.19025074
000280 16 92 94 3e 51 48 86 3d ff e7 21 be c7 f8 dd 3d
       0.29017705 0.06556762 -0.15811156 0.10838466
000290 4a 18 6e 3e 3e bb 95 3d ee 4d 5c 3e 98 38 1f 3d
       0.23251453 0.07311104 0.21514103 0.03887233
0002a0 84 d3 d3 3d 9d de 6d 3c ab 04 22 be 64 c5 05 be
       0.10343078 0.014518407 -0.15822093 -0.1306358
0002b0 16 5f 6a bd 98 85 b1 bd 35 2d fe 3d f6 f8 0e 3d
       -0.057219587 -0.08668059 0.12410966 0.034905396
0002c0 d5 37 d1 bd 43 45 d3 bc b9 4c 6b 3e 5a b2 38 3e
       -0.10215727 -0.025789862 0.22978486 0.18036786
0002d0 61 44 aa bd 48 1a b1 be ac 78 a5 be 06 c0 75 3e
       -0.083138235 -0.34590364 -0.32318628 0.23999032
0002e0 7a eb d6 3d a6 74 79 be 9a f2 3e 3e fc 37 9b 3e
       0.10494132 -0.24360904 0.18647233 0.3031615
0002f0 f2 0a c7 3d f8 e9 ba be 4f 35 6d be 8b 65 e3 3c
       0.097188845 -0.3650663 -0.23164867 0.02775838
000300 70 bb 6e be 10 7a cf bd 27 e5 1f 3e c5 3d 95 be
       -0.23313689 -0.101307034 0.15614758 -0.2914869
000310 f8 e2 1f bd 16 f6 7a 3e bf d5 c0 3d 7a 51 0c 3e
       -0.039034814 0.24507937 0.09415769 0.13702956
000320 89 3c 21 3d a1 77 7d bc 74 de 21 3e 64 a5 41 be
       0.03936437 -0.015470416 0.15807515 -0.18910748
000330 61 6d 36 3e b5 95 73 bc 40 eb 2b be 9d 15 51 bc
       0.17815162 -0.014867236 -0.1678896 -0.012761501
000340 57 01 0a 3e 84 b7 81 3d a8 8b 68 3b c1 b7 63 3e
       0.13477074 0.06333831 0.0035483632 0.22238065
000350 ce ae 7f bd 70 09 a3 3d ed 7b 55 3e ba aa 4f be
       -0.062422566 0.079607844 0.20848055 -0.20279971
000360 42 0a 2a 3e ad 03 93 3d 0f 7f 8c 3e fa 3a c9 bd
       0.16605476 0.071784355 0.27440688 -0.09825702
000370 de 46 2a 3d b5 2a 31 3e c9 75 8d be 7c 59 9f be
       0.04157149 0.17301448 -0.27628925 -0.3112296
000380 4c 35 a2 be b7 49 25 3e 99 37 ee 3d 79 d0 67 3e
       -0.31681287 0.16141401 0.11631698 0.2263812
000390 be ee 0e 3e c5 7c 19 3d 47 6d b1 3d 7d 4c 99 be
       0.1395826 0.037472505 0.08663421 -0.29941168
0003a0 ca 9d 24 be af f8 9b be a8 09 94 3e b4 d7 e6 3d
       -0.16075817 -0.30463168 0.28913617 0.11271611
0003b0 fc 35 7e 3b e1 12 9e 3b 84 41 36 be 34 5d 21 be
       0.0038789501 0.004824028 -0.1779843 -0.1575821
0003c0 1d fc 91 be f9 2e 9d bb a8 ab 3e 3e 20 3c 5a be
       -0.2851266 -0.0047968593 0.18620169 -0.21311998
0003d0 c5 f8 ef bd 5d 68 1d be 5d d4 53 bd f6 b2 93 bd
       -0.11717371 -0.15371843 -0.051716197 -0.072118685
0003e0 7c 74 f2 bd c3 ec 91 3e e6 77 fd 3d b2 20 94 3e
       -0.11838624 0.28500947 0.123763844 0.28931195
0003f0 c8 ff 4d 3d db 0b 19 be 9c f1 b4 be 2f 32 7e bd
       0.05029276 -0.14945929 -0.35340583 -0.062059578

sequential_8/conv2d_17/Conv2D i1 [64, 3, 3, 32]
000000 fd 4e fd 01 e0 10 05 ed 04 dc 0f cc e1 de bd 10
       -3 78 -3 1 -32 16 5 -19 4 -36 15 -52 -31 -34 -67 16
000010 12 f8 f6 f1 14 d2 11 03 1d d9 e5 06 12 f4 03 15
       18 -8 -10 -15 20 -46 17 3 29 -39 -27 6 18 -12 3 21
000020 11 f3 bb 51 06 36 08 38 1a c5 0b 08 08 06 c2 d0
       17 -13 -69 81 6 54 8 56 26 -59 11 8 8 6 -62 -48
000030 21 2c 2a f4 d6 17 fd f6 b8 e5 11 ea 1e 4c 21 02
       33 44 42 -12 -42 23 -3 -10 -72 -27 17 -22 30 76 33 2
000040 16 e2 f6 1d 18 12 1f 0c 13 2c ad 00 22 1a 2b d3
       22 -30 -10 29 24 18 31 12 19 44 -83 0 34 26 43 -45
000050 e2 26 23 f5 d2 ef 04 3a e8 e8 f5 09 d7 12 cf 0d
       -30 38 35 -11 -46 -17 4 58 -24 -24 -11 9 -41 18 -49 13
000060 f4 08 2f 1d 10 22 22 18 1b 17 09 f6 10 3e 1b 4a
       -12 8 47 29 16 34 34 24 27 23 9 -10 16 62 27 74
000070 0c 21 0a 2e 1d cb f3 f9 1d 21 0b 3e 5c 26 10 10
       12 33 10 46 29 -53 -13 -7 29 33 11 62 92 38 16 16
000080 41 0f 05 11 df 08 f5 1a 1e 23 cd 18 25 12 3f 0b
       65 15 5 17 -33 8 -11 26 30 35 -51 24 37 18 63 11
000090 d9 31 04 0e 0d ff 2d 12 00 29 1f 02 bf 2c 09 30
       -39 49 4 14 13 -1 45 18 0 41 31 2 -65 44 9 48
0000a0 cf 10 e8 ce f8 a2 1a d2 d6 ef d5 03 0e f3 17 10
       -49 16 -24 -50 -8 -94 26 -46 -42 -17 -43 3 14 -13 23 16
0000b0 e9 c1 2e d2 9a df 29 29 00 00 1f 88 9b aa a6 7b
       -23 -63 46 -46 -102 -33 41 41 0 0 31 -120 -101 -86 -90 123
0000c0 cf c3 3b 8c bf eb 0d ab cb f1 26 c5 ed fb 3e 7f
       -49 -61 59 -116 -65 -21 13 -85 -53 -15 38 -59 -19 -5 62 127
0000d0 ec e2 d8 ea 18 bc 00 d6 76 41 32 d7 10 c9 db 32
       -20 -30 -40 -22 24 -68 0 -42 118 65 50 -41 16 -55 -37 50
0000e0 f0 ad 3d df f0 cb f8 ae db f9 e9 c4 d9 d4 56 3b
       -16 -83 61 -33 -16 -53 -8 -82 -37 -7 -23 -60 -39 -44 86 59
0000f0 b5 06 e7 9a d6 a6 fc ad 26 4c 0e 2b 2e f2 db 4e
       -75 6 -25 -102 -42 -90 -4 -83 38 76 14 43 46 -14 -37 78

sequential_8/dense_8/MatMul i1 [10, 1600] scale=0.0031572175 zero_point=0
000000 fc f8 ff 0e e9 ef 0c f8 f5 03 e7 18 ed fe f5 05
       -0.01262887 -0.02525774 -0.0031572175 0.044201046 -0.072616 -0.053672697 0.037886612 -0.02525774 -0.03472939 0.009471653 -0.07893044 0.075773224 -0.05998713 -0.006314435 -0.03472939 0.015786087
000010 f8 fe ec e3 09 f7 ff db f6 f7 ea e8 ff f6 fb ff
       -0.02525774 -0.006314435 -0.06314435 -0.091559306 0.028414957 -0.028414957 -0.0031572175 -0.11681705 -0.031572174 -0.028414957 -0.06945878 -0.075773224 -0.0031572175 -0.031572174 -0.015786087 -0.0031572175
000020 e1 f7 15 ed 00 08 ff fb 06 07 e6 16 0a f4 ef 02
       -0.09787374 -0.028414957 0.06630157 -0.05998713 0.0 0.02525774 -0.0031572175 -0.015786087 0.018943306 0.022100523 -0.08208766 0.06945878 0.031572174 -0.037886612 -0.053672697 0.006314435
000030 f6 e9 09 f5 f7 fe f7 f5 07 ef f6 08 c5 eb f4 e0
       -0.031572174 -0.072616 0.028414957 -0.03472939 -0.028414957 -0.006314435 -0.028414957 -0.03472939 0.022100523 -0.053672697 -0.031572174 0.02525774 -0.18627584 -0.06630157 -0.037886612 -0.10103096
000040 e6 d8 ee ff 15 e7 0f f6 f3 f6 f5 f2 de e7 f0 f5
       -0.08208766 -0.1262887 -0.056829914 -0.0031572175 0.06630157 -0.07893044 0.047358263 -0.031572174 -0.04104383 -0.031572174 -0.03472939 -0.044201046 -0.107345395 -0.07893044 -0.05051548 -0.03472939
000050 01 ee f5 c0 f7 18 fe e2 ec 01 ff c4 fb 07 06 f3
       0.0031572175 -0.056829914 -0.03472939 -0.20206192 -0.028414957 0.075773224 -0.006314435 -0.09471653 -0.06314435 0.0031572175 -0.0031572175 -0.18943305 -0.015786087 0.022100523 0.018943306 -0.04104383
000060 eb 06 ed fb cb e0 e7 f8 dc 0a f7 f7 e0 ed fe f6
       -0.06630157 0.018943306 -0.05998713 -0.015786087 -0.16733253 -0.10103096 -0.07893044 -0.02525774 -0.11365983 0.031572174 -0.028414957 -0.028414957 -0.10103096 -0.05998713 -0.006314435 -0.031572174
000070 f5 fb fb f6 e4 f9 f9 fa fc e4 fd f0 eb c5 f2 e7
       -0.03472939 -0.015786087 -0.015786087 -0.031572174 -0.08840209 -0.022100523 -0.022100523 -0.018943306 -0.01262887 -0.08840209 -0.009471653 -0.05051548 -0.06630157 -0.18627584 -0.044201046 -0.07893044
000080 f9 f5 fe 02 02 fc f6 ef 19 01 e5 ef e8 dd 0f 03
       -0.022100523 -0.03472939 -0.006314435 0.006314435 0.006314435 -0.01262887 -0.031572174 -0.053672697 0.07893044 0.0031572175 -0.08524487 -0.053672697 -0.075773224 -0.110502616 0.047358263 0.009471653
000090 00 f8 f3 f0 0b e1 06 da f0 0b e3 ea fe e7 f2 fb
       0.0 -0.02525774 -0.04104383 -0.05051548 0.03472939 -0.09787374 0.018943306 -0.11997426 -0.05051548 0.03472939 -0.091559306 -0.06945878 -0.006314435 -0.07893044 -0.044201046 -0.015786087
0000a0 eb ee 00 00 f7 f6 01 08 f8 0d 07 16 e1 fe f6 13
       -0.06630157 -0.056829914 0.0 0.0 -0.028414957 -0.031572174 0.0031572175 0.02525774 -0.02525774 0.04104383 0.022100523 0.06945878 -0.09787374 -0.006314435 -0.031572174 0.05998713
0000b0 fb f0 f8 f2 fc 0b 05 09 f3 f3 07 f6 f6 e1 fe e4
       -0.015786087 -0.05051548 -0.02525774 -0.044201046 -0.01262887 0.03472939 0.015786087 0.028414957 -0.04104383 -0.04104383 0.022100523 -0.031572174 -0.031572174 -0.09787374 -0.006314435 -0.08840209
0000c0 d8 01 f6 0c fd 0d 05 f9 1b ff 0b e9 f2 e5 ee e9
       -0.1262887 0.0031572175 -0.031572174 0.037886612 -0.009471653 0.04104383 0.015786087 -0.022100523 0.08524487 -0.0031572175 0.03472939 -0.072616 -0.044201046 -0.08524487 -0.056829914 -0.072616
0000d0 07 02 04 f2 0d e2 f4 02 fe f3 06 e8 09 02 df 09
       0.022100523 0.006314435 0.01262887 -0.044201046 0.04104383 -0.09471653 -0.037886612 0.006314435 -0.006314435 -0.04104383 0.018943306 -0.075773224 0.028414957 0.006314435 -0.10418818 0.028414957
0000e0 0a fc f7 f5 0b 04 f1 11 ef 0b 00 0b e6 f5 f6 07
       0.031572174 -0.01262887 -0.028414957 -0.03472939 0.03472939 0.01262887 -0.047358263 0.053672697 -0.053672697 0.03472939 0.0 0.03472939 -0.08208766 -0.03472939 -0.031572174 0.022100523
0000f0 04 19 e5 0b f8 09 00 e7 f8 ea 01 08 fa c1 fa 0d
       0.01262887 0.07893044 -0.08524487 0.03472939 -0.02525774 0.028414957 0.0 -0.07893044 -0.02525774 -0.06945878 0.0031572175 0.02525774 -0.018943306 -0.19890471 -0.018943306 0.04104383
