quantization/saved_model/model.tflite (tflite, 142360 bytes, 6 tensors)

sequential_8/conv2d_16/BiasAdd/ReadVariableOp f4 [32]
-0.025091987 0.04775918 -0.0015044713 -0.0018551565 -0.036351744 -0.0026014068 -0.014978639 -0.00035458486
-0.053016543 -0.006401684 0.115964875 -0.008608825 -0.025235513 -0.01113301 0.017656801 -0.003322347
-0.018868776 -0.0033719616 -0.017359087 -0.0041831997 0.041166887 0.11775822 -0.014591719 -0.030910442
0.039671816 -0.0014568609 -0.0028702342 0.016455417 -0.004786392 -0.00765969 -0.024882847 0.14009507
00000000: b68d cdbc 219f 433d ae31 c5ba b928 f3ba
00000010: 91e5 14bd 5d7c 2abb f768 75bc 93e7 b9b9
00000020: e027 59bd 38c5 d1bb fe7e ed3d 070c 0dbc
00000030: b5ba cebc 3a67 36bc ffa4 903c bcbb 59bb
00000040: b192 9abc 21fc 5cbb a534 8ebc 3913 89bb
00000050: 9c9e 283d 392b f13d 1b12 6fbc e537 fdbc
00000060: ea7e 223d 24f4 beba 8a1a 3cbb 83cd 863c
00000070: 2bd7 9cbb 23fe fabb 1dd7 cbbc 1575 0f3e

sequential_8/conv2d_17/BiasAdd/ReadVariableOp f4 [64]
-0.03474582 -0.03972609 -0.055902343 -0.012130583 -0.053757865 -0.018931048 -0.031238195 -0.03571498
-0.08131442 -0.044782892 -0.028240139 0.021693327 -0.011171953 0.0011500677 -0.0140886875 0.011245341
-0.01315017 -0.046122883 0.006036962 -0.04031792 -0.03986569 -0.048160333 -0.031258952 -0.0011988034
-0.07023693 -0.00017521047 -0.068368055 -0.020383587 -0.0055399216 -0.06648715 0.044054344 -0.003620734
-0.031094182 -0.007444404 -0.053812634 -0.003094835 -0.022816196 -0.006965045 0.008023011 -0.07122578
-0.016355153 -0.01880417 -0.032252472 -0.08209067 -0.054894034 0.0334996 -0.062219445 -0.050401773
0.012464656 -0.06473867 0.010090825 0.022377023 -0.0021839628 0.012057412 -0.021017114 -0.032249507
-0.059106123 0.0015820875 -0.0113404635 -0.05486731 -0.013667083 0.014956406 -0.04330683 -0.00087663706
00000000: a251 0ebd d3b7 22bd dbf9 64bd 5abf 46bc
00000010: 3531 5cbd 4915 9bbc 3ee7 ffbc df49 12bd
00000020: 2d88 a6bd 446e 37bd dd57 e7bc 34b6 b13c
00000030: 910a 37bc debd 963a 3dd4 66bc 613e 383c
00000040: d073 57bc 59eb 3cbd b5d1 c53b 6724 25bd
00000050: 354a 23bd c543 45bd 6309 00bd 2b21 9dba
00000060: 61d8 8fbd b4b8 37b9 8d04 8cbd 7bfb a6bc
00000070: 3b88 b5bb 6a2a 88bd 5472 343d d649 6dbb
00000080: 3ab9 febc 30f0 f3bb a36a 5cbd b7d2 4abb
00000090: 08e9 babc 083b e4bb f272 033c d2de 91bd
000000a0: 3efb 85bc 340b 9abc 2b1b 04bd 271f a8bd
000000b0: 91d8 60bd e036 093d d1d9 7ebd 1772 4ebd
000000c0: 8e38 4c3c b595 84bd fd53 253c 0550 b73c
000000d0: d120 0fbb 748c 453c 152c acbc 0f18 04bd
000000e0: 4319 72bd 0c5e cf3a 5acd 39bc 8bbc 60bd
000000f0: e7eb 5fbc b70b 753c 8162 31bd 1ece 65ba

sequential_8/conv2d_16/Conv2D f4 [32, 3, 3, 1]
-0.21947755 0.08928084 0.16847 -0.09914248 -0.09080853 0.070576034 0.03218857 -0.012678709
0.18052097 0.29289532 -0.058058802 -0.4343321 0.31303343 0.111254185 -0.4350195 0.14354354
0.18145457 -0.19429643 0.09808045 0.14298111 0.26843396 -0.04822935 -0.06699464 0.16761136
-0.10121769 -0.29749268 -0.17557366 -0.25717124 -0.052921906 0.20284314 -0.27602473 0.03773034
0.107787155 -0.071514875 0.010719918 0.25747088 0.09637195 0.08284516 0.11504524 0.15212424
-0.01939507 0.18787576 0.14475253 0.19196536 0.10236276 -0.24158998 -0.32533836 -0.065130085
0.066923484 0.09386224 0.22019927 0.19875671 0.11196737 -0.027357839 0.14048308 -0.061889347
0.08789013 0.066253826 0.07656678 0.0078016934 0.14469713 -0.012821548 0.12152102 -0.32899413
-0.18302347 0.11613019 -0.23298372 -0.0111493645 0.24749327 -0.07789352 0.17929126 0.20516118
0.10655494 0.110863045 -0.060382638 -0.10820221 -0.032146264 0.12907276 -0.22608615 0.16148877
0.16086203 0.13792059 0.033395268 0.17441411 0.23195578 0.083288364 0.12238486 0.08282213
-0.13412122 -0.1581119 -0.41119573 -0.32792655 -0.18370351 0.14396344 -0.07716592 -0.34006435
0.28955728 0.10933678 0.06673675 0.2068433 0.11907509 0.029846514 -0.10000682 0.11764473
0.09504056 -0.014027612 0.17117067 0.12680124 0.1673628 -0.019136222 0.0038182384 0.041657157
0.18110645 0.08757447 -0.19829728 0.10751101 0.0030089784 -0.11829529 -0.24981262 0.007980206
-0.0724492 0.19686773 0.19486341 0.2445858 0.098163255 -0.14577423 0.14684089 0.23422088
0.23220684 0.22186276 0.1877236 -0.054391503 -0.27309498 -0.40729922 -0.29992548 0.10087245
0.18736412 0.2690891 -0.09149776 -0.013424455 0.16218983 -0.33705646 -0.22044946 -0.16822824
0.12635449 0.04360926 0.045606922 0.14734036 0.15142876 -0.019860433 -0.13261725 0.19037001
0.21438383 -0.27709875 -0.37821835 -0.051011994 0.056605425 0.043999467 0.07856098 0.19025074
0.29017705 0.06556762 -0.15811156 0.10838466 0.23251453 0.07311104 0.21514103 0.03887233
0.10343078 0.014518407 -0.15822093 -0.1306358 -0.057219587 -0.08668059 0.12410966 0.034905396
-0.10215727 -0.025789862 0.22978486 0.18036786 -0.083138235 -0.34590364 -0.32318628 0.23999032
0.10494132 -0.24360904 0.18647233 0.3031615 0.097188845 -0.3650663 -0.23164867 0.02775838
-0.23313689 -0.101307034 0.15614758 -0.2914869 -0.039034814 0.24507937 0.09415769 0.13702956
0.03936437 -0.015470416 0.15807515 -0.18910748 0.17815162 -0.014867236 -0.1678896 -0.012761501
0.13477074 0.06333831 0.0035483632 0.22238065 -0.062422566 0.079607844 0.20848055 -0.20279971
0.16605476 0.071784355 0.27440688 -0.09825702 0.04157149 0.17301448 -0.27628925 -0.3112296
-0.31681287 0.16141401 0.11631698 0.2263812 0.1395826 0.037472505 0.08663421 -0.29941168
-0.16075817 -0.30463168 0.28913617 0.11271611 0.0038789501 0.004824028 -0.1779843 -0.1575821
-0.2851266 -0.0047968593 0.18620169 -0.21311998 -0.11717371 -0.15371843 -0.051716197 -0.072118685
-0.11838624 0.28500947 0.123763844 0.28931195 0.05029276 -0.14945929 -0.35340583 -0.062059578
00000000: b9be 60be dfd8 b63d 6683 2c3e 360b cbbd
00000010: d3f9 b9bd 2b8a 903d 29d8 033d 5cba 4fbc
00000020: 7dda 383e 60f6 953e 11cf 6dbd c760 debe
00000030: eb45 a03e 3cd9 e33d e0ba debe 14fd 123e
00000040: 3acf 393e a5f5 46be 67de c83d a469 123e
00000050: 2d70 893e 248c 45bd 7c34 89bd 50a2 2b3e
00000060: 384b cfbd f650 98be 95c9 33be f3ab 83be
00000070: a4c4 58bd 1db6 4f3e 1d53 8dbe 218b 1a3d
00000080: 83bf dc3d 6476 92bd 98a2 2f3c 39d3 833e
00000090: a85e c53d b9aa a93d d79c eb3d 75c6 1b3e
000000a0: 69e2 9ebc 8162 403e 023a 143e 9192 443e
000000b0: 91a3 d13d 5d63 77be c092 a6be ec62 85bd
000000c0: 2e0f 893d d93a c03d eb7b 613e e186 4b3e
000000d0: 264f e53d 8c1d e0bc ccda 0f3e af7f 7dbd
000000e0: beff b33d 16b0 873d 0bcf 9c3d 59a5 ff3b
000000f0: 7c2b 143e 7811 52bc 03e0 f83d eb71 a8be
00000100: 816a 3bbe aad5 ed3d 4993 6ebe d3ab 36bc
00000110: e06e 7d3e a386 9fbd 2198 373e c615 523e
00000120: 7a39 da3d 2a0c e33d c953 77bd 1f99 ddbd
00000130: cdab 03bd a62b 043e 2183 67be 505d 253e
00000140: 04b9 243e 0e3b 0d3e 7ac9 083d 9d99 323e
00000150: d185 6d3e 1793 aa3d eaa4 fa3d a69e a93d
00000160: 1357 09be 16e8 21be 3f88 d2be fde5 a7be
00000170: c61c 3cbe 276b 133e 2a09 9ebd ea1c aebe
00000180: da40 943e f6eb df3d 47ad 883d bbce 533e
00000190: a4dd f33d ad80 f43c 60d0 ccbd b8ef f03d
000001a0: a0a4 c23d 12d4 65bc 5d47 2f3e 2fd8 013e
000001b0: 2761 2b3e 91c3 9cbc 693b 7a3b b2a0 2a3d
000001c0: f873 393e 3e5a b33d 710e 4bbe bb2e dc3d
000001d0: 4832 453b cd44 f2bd e1ce 7fbe 69bf 023c
000001e0: 3f60 94bd b297 493e 468a 473e b374 7a3e
000001f0: d109 c93d d745 15be 755d 163e 99d7 6f3e
00000200: a1c7 6d3e fe2f 633e 9e3a 403e a0c9 5ebd
00000210: 1bd3 8bbe 8689 d0be d58f 99be 3796 ce3d
00000220: 61dc 3f3e 0cc6 893e 2d63 bbbd 3ff2 5bbc
00000230: 1715 263e aa92 acbe 81bd 61be 0644 2cbe
00000240: 1263 013e a09f 323d 53ce 3a3d 64e0 163e
00000250: 2410 1b3e 59b2 a2bc d1cc 07be 5bf0 423e
00000260: 6f87 5b3e e3df 8dbe d6a5 c1be f4f1 50bd
00000270: 17db 673d c938 343d 94e4 a03d 17d1 423e
00000280: 1692 943e 5148 863d ffe7 21be c7f8 dd3d
00000290: 4a18 6e3e 3ebb 953d ee4d 5c3e 9838 1f3d
000002a0: 84d3 d33d 9dde 6d3c ab04 22be 64c5 05be
000002b0: 165f 6abd 9885 b1bd 352d fe3d f6f8 0e3d
000002c0: d537 d1bd 4345 d3bc b94c 6b3e 5ab2 383e
000002d0: 6144 aabd 481a b1be ac78 a5be 06c0 753e
000002e0: 7aeb d63d a674 79be 9af2 3e3e fc37 9b3e
000002f0: f20a c73d f8e9 babe 4f35 6dbe 8b65 e33c
00000300: 70bb 6ebe 107a cfbd 27e5 1f3e c53d 95be
00000310: f8e2 1fbd 16f6 7a3e bfd5 c03d 7a51 0c3e
00000320: 893c 213d a177 7dbc 74de 213e 64a5 41be
00000330: 616d 363e b595 73bc 40eb 2bbe 9d15 51bc
00000340: 5701 0a3e 84b7 813d a88b 683b c1b7 633e
00000350: ceae 7fbd 7009 a33d ed7b 553e baaa 4fbe
00000360: 420a 2a3e ad03 933d 0f7f 8c3e fa3a c9bd
00000370: de46 2a3d b52a 313e c975 8dbe 7c59 9fbe
00000380: 4c35 a2be b749 253e 9937 ee3d 79d0 673e
00000390: beee 0e3e c57c 193d 476d b13d 7d4c 99be
000003a0: ca9d 24be aff8 9bbe a809 943e b4d7 e63d
000003b0: fc35 7e3b e112 9e3b 8441 36be 345d 21be
000003c0: 1dfc 91be f92e 9dbb a8ab 3e3e 203c 5abe
000003d0: c5f8 efbd 5d68 1dbe 5dd4 53bd f6b2 93bd
000003e0: 7c74 f2bd c3ec 913e e677 fd3d b220 943e
000003f0: c8ff 4d3d db0b 19be 9cf1 b4be 2f32 7ebd

sequential_8/conv2d_17/Conv2D f4 [64, 3, 3, 32]
-0.0071332627 0.16506469 -0.005958838 0.0019719715 -0.066673495 0.033748463 0.01070934 -0.040545393
0.0074736653 -0.0764662 0.030784069 -0.11041657 -0.06593196 -0.07088637 -0.14109452 0.03355275
0.03761897 -0.01669773 -0.02011431 -0.03187221 0.04119052 -0.096696734 0.035658892 0.007209038
0.060838602 -0.08182962 -0.056395743 0.012088223 0.037709225 -0.024386428 0.0071196994 0.043413933
0.035243858 -0.028369404 -0.14512086 0.17167333 0.013665073 0.11414897 0.016138611 0.11812916
0.054650463 -0.12345639 0.024066202 0.017400928 0.017294511 0.013323613 -0.13063802 -0.101273
0.07067641 0.092830256 0.088625886 -0.025243152 -0.088887304 0.048827633 -0.005887481 -0.020559054
-0.15131404 -0.057359263 0.035764147 -0.045867093 0.064056374 0.1593999 0.0704178 0.0050757076
0.04677374 -0.06386612 -0.02200907 0.061759725 0.051511202 0.03817068 0.065018594 0.025675694
0.04053429 0.09259079 -0.17534383 0.00063322164 0.072748564 0.054407835 0.09015687 -0.094082065
-0.06251388 0.08013982 0.07375819 -0.02245906 -0.096280836 -0.036203846 0.009096491 0.1230124
-0.049848143 -0.05168188 -0.022282822 0.018515768 -0.0854598 0.038844116 -0.10300185 0.028409593
-0.024579741 0.017473206 0.10011841 0.061521646 0.03407545 0.070969835 0.07076607 0.051494606
0.05773887 0.04828633 0.018063309 -0.021737147 0.03388121 0.13001971 0.05691144 0.15658891
0.025894292 0.06968423 0.02017252 0.0976852 0.062129136 -0.11155598 -0.027391857 -0.014168045
0.060892437 0.069599494 0.02310619 0.13014403 0.1930818 0.0797458 0.03337251 0.03457319
0.1365262 0.031784836 0.010273285 0.034932226 -0.06889841 0.016354252 -0.022595437 0.054069094
0.063662805 0.07475248 -0.10697682 0.051203154 0.077118635 0.037785854 0.13347794 0.023052916
-0.08217069 0.103015654 0.008550111 0.030159136 0.028318515 -0.0015857139 0.09480856 0.0378113
6.249038e-05 0.08634842 0.06459488 0.0049242126 -0.13663754 0.09379538 0.018188104 0.101913445
-0.10350053 0.034671307 -0.049856752 -0.1056236 -0.016152365 -0.1972854 0.05446503 -0.096775495
-0.08855085 -0.03672185 -0.090551384 0.0067367004 0.029657712 -0.028074926 0.04871558 0.034573942
-0.04775633 -0.13205661 0.096198544 -0.09768136 -0.21582422 -0.06988944 0.08553258 0.08741081
0.00042550586 0.00041979578 0.06479309 -0.25301287 -0.21357752 -0.1821123 -0.19057629 0.25939316
-0.10396008 -0.12936161 0.12540555 -0.2441149 -0.13638166 -0.044172816 0.0279482 -0.17862646
-0.11174559 -0.032344386 0.08023087 -0.12526165 -0.040616836 -0.009838462 0.13158317 0.26793844
-0.04291602 -0.06303691 -0.08506614 -0.046727765 0.051592205 -0.14276275 0.00092744635 -0.08917739
0.24830268 0.13670398 0.10469848 -0.085769065 0.034137882 -0.11691913 -0.07761903 0.106308535
-0.032876227 -0.17415226 0.12920403 -0.06882905 -0.033407684 -0.11273176 -0.016652891 -0.17214876
-0.07736385 -0.015638413 -0.048374154 -0.12632124 -0.08278692 -0.09289901 0.18195836 0.12501948
-0.15773386 0.0133074885 -0.052142426 -0.21597128 -0.08877262 -0.18995394 -0.007642379 -0.17582925
0.08055339 0.16073214 0.029251575 0.090607576 0.097188056 -0.030474292 -0.07833118 0.1650666
00000000: 25be e9bb b806 293e 5b42 c3bb 313c 013b
00000010: 1d8c 88bd d43b 0a3d 3a76 2f3c ed12 26bd
00000020: a6e5 f43b 509a 9cbd df2e fc3c 1522 e2bd
00000030: 5607 87bd e02c 91bd 157b 10be 9c6e 093d
00000040: 5916 1a3d aec9 88bc c4c6 a4bc 6f8c 02bd
00000050: 64b7 283d f008 c6bd 0f0f 123d cb39 ec3b
00000060: e631 793d 4a96 a7bd 39ff 66bd af0d 463c
00000070: fd74 1a3d 0cc6 c7bc 5e4c e93b cfd2 313d
00000080: dd5b 103d f466 e8bc 909a 14be 22cb 2f3e
00000090: 78e3 5f3c efc6 e93d 1f35 843c b3ed f13d
000000a0: 2ad9 5f3d b4d6 fcbd 7c26 c53c 648c 8e3c
000000b0: 38ad 8d3c 494b 5a3c f9c5 05be 3868 cfbd
000000c0: cbbe 903d ca1d be3d 7d81 b53d baca cebc
000000d0: 8c0a b6bd 7cff 473d c5eb c0bb 766b a8bc
000000e0: 11f2 1abe 8cf1 6abd 6d7d 123d 22df 3bbd
000000f0: fd2f 833d ba39 233e 3537 903d 1f52 a63b
00000100: d295 3f3d 3ecc 82bd 5d4c b4bc c4f7 7c3d
00000110: 69fd 523d dc58 1c3d 7828 853d d555 d23c
00000120: 4907 263d 3da0 bd3d 558d 33be c9fe 253a
00000130: 33fd 943d c0da 5e3d 2aa4 b83d 19ae c0bd
00000140: 4707 80bd 5920 a43d 890e 973d 10fc b7bc
00000150: e32e c5bd 7c4a 14bd 7309 153c eded fb3d
00000160: 912d 4cbd 61b0 53bd 778a b6bc 61ae 973c
00000170: 8c05 afbd 021b 1f3d a2f2 d2bd 3cbb e83c
00000180: 745b c9bc f823 8f3c e20a cd3d 1ffe 7b3d
00000190: b392 0b3d a258 913d cded 903d 02ec 523d
000001a0: 987f 6c3d e3c7 453d 81f9 933c 1a12 b2bc
000001b0: 06c7 0a3d e323 053e f81b 693d d858 203e
000001c0: 4420 d43c 9bb6 8e3d d740 a53c 2e0f c83d
000001d0: 1f7b 7e3d 7677 e4bd e364 e0bc 1621 68bc
000001e0: 596a 793d 2e8a 8e3d 3149 bd3c 7a44 053e
000001f0: 3cb7 453e c451 a33d 9db1 083d 9e9c 0d3d
00000200: 86cd 0b3e d130 023d 4851 283c 1815 0f3d
00000210: 9c1a 8dbd 5af9 853c 111a b9bc 8e77 5d3d
00000220: a561 823d d417 993d aa16 dbbd 66ba 513d
00000230: 60f0 9d3d 57c5 1a3d 71ae 083e 78d9 bc3c
00000240: 1b49 a8bd dff9 d23d c415 0c3c 4b10 f73c
00000250: 3bfc e73c bbd7 cfba fe2a c23d 06e0 1a3d
00000260: 440d 8338 71d7 b03d 524a 843d 4a5b a13b
00000270: b6ea 0bbe cb17 c03d 38ff 943c ffb7 d03d
00000280: 16f8 d3bd 8003 0e3d 9836 4cbd 3051 d8bd
00000290: f751 84bc 2f05 4abe b916 5f3d 3b32 c6bd
000002a0: 265a b5bd a769 16bd 0173 b9bd 8abf dc3b
000002b0: bbf4 f23c 63fd e5bc fd89 473d 689d 0d3d
000002c0: 249c 43bd d939 07be be03 c53d 2a0d c8bd
000002d0: 0601 5dbe 3222 8fbd b52b af3d 7004 b33d
000002e0: 6e16 df39 0918 dc39 3db2 843d e78a 81be
000002f0: 11b4 5abe a67b 3abe 6e26 43be 2ecf 843e
00000300: 06e9 d4bd 5f77 04be 506a 003e 42f9 79be
00000310: a2a7 0bbe 8eee 34bd a0f3 e43c dbe9 36be
00000320: dfda e4bd 8c7b 04bd 1550 a43d 9744 00be
00000330: d75d 26bd 8031 21bc bdbd 063e 3a2f 893e
00000340: b5c8 2fbd 7f19 81bd 2837 aebd 9d65 3fbd
00000350: 5952 533d 6630 12be df1f 733a a3a2 b6bd
00000360: 0f43 7e3e 21fc 0b3e 286c d63d b1a7 afbd
00000370: 2ad4 0b3d 4c73 efbd baf6 9ebd 4ab8 d93d
00000380: 39a9 06bd f854 32be 104e 043e 3ff6 8cbd
00000390: 7fd6 08bd e9df e6bd a56b 88bc c447 30be
000003a0: f070 9ebd 211c 80bc fa23 46bd 5b5a 01be
000003b0: 308c a9bd d641 bebd 4b53 3a3e 1b05 003e
000003c0: fc84 21be a707 5a3c 4c93 55bd 9327 5dbe
000003d0: 6bce b5bd 4983 42be ec6c fabb 950c 34be
000003e0: 2df9 a43d f796 243e 00a1 ef3c 7790 b93d
000003f0: 880a c73d 39a5 f9bc 196c a0bd 3807 293e

sequential_8/dense_8/BiasAdd/ReadVariableOp f4 [10]
0.0070418715 0.07042762 -0.006935094 -0.021911463 -0.028894363 -0.0053476896 -0.0024025259 0.0007166273
-0.011420062 0.0038411014
00000000: 80bf e63b 5b3c 903d c93f e3bb ab7f b3bc
00000010: dfb3 ecbc ac3b afbb b273 1dbb 0bdc 3b3a
00000020: 361b 3bbc fdba 7b3b

sequential_8/dense_8/MatMul f4 [10, 1600]
-0.013145226 -0.02400316 -0.0026947137 0.04347885 -0.07379409 -0.053608697 0.037638295 -0.023862846
-0.035746735 0.010958578 -0.07980238 0.07685566 -0.060537465 -0.006046398 -0.03474604 0.015112324
-0.023895806 -0.0060261935 -0.0624461 -0.09031997 0.028097525 -0.027891858 -0.0018240735 -0.11639915
-0.031043407 -0.029508289 -0.070445925 -0.076280594 -0.004654058 -0.030340116 -0.016328936 -0.0016019844
-0.096863754 -0.02883558 0.065511234 -0.060115058 0.00054751703 0.02547262 -0.0020360555 -0.0144622475
0.01956691 0.020971635 -0.08198881 0.0697573 0.03198678 -0.037184265 -0.054297015 0.0051428378
-0.033113427 -0.07357666 0.02828844 -0.036241446 -0.029931037 -0.005388077 -0.027221495 -0.033714116
0.020950813 -0.054712888 -0.030140977 0.025045333 -0.18642826 -0.06482811 -0.038413566 -0.10184928
-0.0811218 -0.12603596 -0.05556409 -0.0022836525 0.06663349 -0.07753841 0.047914006 -0.03245438
-0.040551104 -0.032200642 -0.035643693 -0.043352045 -0.106145695 -0.08047749 -0.050108757 -0.03457789
0.0030787108 -0.055928484 -0.034566958 -0.20100057 -0.028938359 0.074413486 -0.006903657 -0.09607984
-0.06363942 0.0016072862 -0.004251826 -0.1884306 -0.016356526 0.022731282 0.02037021 -0.039897047
-0.06656746 0.020117015 -0.058664035 -0.016057549 -0.16611734 -0.099566445 -0.077390336 -0.025222575
-0.11259645 0.03177599 -0.028227305 -0.027752483 -0.099622145 -0.06047231 -0.006930483 -0.030279674
-0.035815213 -0.015500426 -0.016557569 -0.03299123 -0.088315085 -0.020945087 -0.023006352 -0.01960296
-0.014167093 -0.087606885 -0.009597388 -0.051339883 -0.06666845 -0.1864214 -0.042907264 -0.07748136
-0.022883262 -0.035877764 -0.0075274967 0.006488109 0.006465591 -0.011061029 -0.030728461 -0.052503813
0.080049254 0.00468372 -0.08580826 -0.05348862 -0.075921044 -0.1093639 0.047871277 0.009262806
-0.0011335318 -0.026718384 -0.04101886 -0.050297577 0.03594212 -0.09703748 0.018609155 -0.12105383
-0.050642695 0.03382743 -0.09203125 -0.070308745 -0.005197184 -0.07740055 -0.044098843 -0.017144548
-0.06607161 -0.058250144 0.0005976979 0.0011109397 -0.028411608 -0.031917255 0.0042777485 0.025557578
-0.02441504 0.039617434 0.02311296 0.07063737 -0.09767592 -0.005498809 -0.033135522 0.060875624
-0.014219968 -0.049965933 -0.024053933 -0.044665396 -0.01234089 0.036201954 0.015547626 0.029811855
-0.041591987 -0.04071191 0.020784428 -0.030415803 -0.030628514 -0.098462515 -0.0055276444 -0.08844
-0.12777305 0.004003673 -0.031949475 0.037084997 -0.007908793 0.041855194 0.014359052 -0.022099487
0.086276874 -0.0019455131 0.034673747 -0.07300861 -0.04314857 -0.08663466 -0.058229346 -0.072529964
0.022509864 0.0073173977 0.011805087 -0.045321062 0.04126363 -0.094420455 -0.037231293 0.007145201
-0.0074143363 -0.039875 0.018809492 -0.07560356 0.029684935 0.005030651 -0.105631664 0.027824478
0.031809937 -0.012127305 -0.027637364 -0.034685288 0.036115587 0.0124563435 -0.047975495 0.052551523
-0.05306846 0.03570374 -0.0011595841 0.033156987 -0.08157202 -0.034415696 -0.03285962 0.022622114
0.012389151 0.07863067 -0.0859916 0.03426355 -0.02424725 0.028246084 0.00035976697 -0.07775936
-0.02443898 -0.06913913 0.004373466 0.024797896 -0.020068234 -0.20041972 -0.018724455 0.04109195
00000000: 135f 57bc 46a2 c4bc cb99 30bb e116 323d
00000010: 5b21 97bd cb94 5bbd 9d2a 1a3d 047c c3bc
00000020: 2b6b 12bd 9c8b 333c 6e6f a3bd 8066 9d3d
00000030: 22f6 77bd dd20 c6bb dd51 0ebd ae99 773c
00000040: 23c1 c3bc 6077 c5bb 7bc7 7fbd adf9 b8bd
00000050: c82c e63c 777d e4bc c015 efba ad62 eebd
00000060: be4e febc 5ebb f1bc f445 90bd 0039 9cbd
00000070: 1181 98bb d68b f8bc 43c4 85bc adf9 d1ba
00000080: 8160 c6bd 9838 ecbc c12a 863d 353b 76bd
00000090: 3f87 0f3a f5ab d03c 586f 05bb 10f3 6cbc
000000a0: c94a a03c b5cc ab3c c0e9 a7bd eadc 8e3d
000000b0: 9204 033d 874e 18bd 8c66 5ebd 4085 a83b
000000c0: f2a1 07bd 5caf 96bd 29bd e73c e971 14bd
000000d0: ef31 f5bc 778e b0bb 9dff debc d017 0abd
000000e0: 0aa1 ab3c 9f1a 60bd 36ea f6bc df2b cd3c
000000f0: 0de7 3ebe 9ac4 84bd 8b57 1dbd 5b96 d0bd
00000100: 3023 a6bd 920f 01be 2c97 63bd 55a9 15bb
00000110: 2477 883d 75cc 9ebd 7a41 443d e2ee 04bd
00000120: ea18 26bd d2e4 03bd 1fff 11bd ea91 31bd
00000130: ea62 d9bd 62d1 a4bd d73e 4dbd 8ca1 0dbd
00000140: 32c4 493b 4415 65bd 1596 0dbd 18d3 4dbe
00000150: 2310 edbc 1966 983d 1338 e2bb 82c5 c4bd
00000160: 6255 82bd 93ab d23a e752 8bbb f4f3 40be
00000170: 1ffe 85bc f436 ba3c 6ddf a63c 166b 23bd
00000180: 8554 88bd 70cc a43c b349 70bd 1f8b 83bc
00000190: aa1a 2abe 7ee9 cbbd d37e 9ebd 939f cebc
000001a0: f898 e6bd 8a27 023d f33c e7bc 2d59 e3bc
000001b0: b206 ccbd d0b1 77bd 1b19 e3bb 140d f8bc
000001c0: f9b2 12bd 80f5 7dbc bda3 87bc d021 07bd
000001d0: 8ade b4bd 0895 abbc d177 bcbc 6396 a0bc
000001e0: 181d 68bc 3d6b b3bd 5d3e 1dbc c549 52bd
000001f0: 7889 88bd 40e5 3ebe 87bf 2fbd 8cae 9ebd
00000200: ae75 bbbc 90f4 12bd 38a9 f6bb 349a d43b
00000210: 4fdd d33b 5139 35bc 41ba fbbc 3d0e 57bd
00000220: ddf0 a33d e479 993b 3ebc afbd e216 5bbd
00000230: 7e7c 9bbd 2efa dfbd ac14 443d 06c3 173c
00000240: 0493 94ba 83e0 dabc 6403 28bd d504 4ebd
00000250: 0b38 133d 96bb c6bd 3a72 983c 12eb f7bd
00000260: b76e 4fbd a28e 0a3d e17a bcbd 08fe 8fbd
00000270: 244d aabb 2e84 9ebd fda0 34bd b972 8cbc
00000280: 8d50 87bd b497 6ebd d4ae 1c3a f39c 913a
00000290: 76bf e8bc abbb 02bd 5b2c 8c3b 205e d13c
000002a0: 0d02 c8bc e445 223d 6457 bd3c 53aa 903d
000002b0: 500a c8bd 5a2f b4bb 1db9 07bd b858 793d
000002c0: defa 68bc 14a9 4cbd c10c c5bc 10f3 36bd
000002d0: 7231 4abc 8048 143d 78bb 7e3c fe37 f43c
000002e0: 5c5c 2abd 88c1 26bd 1b44 aa3c 902a f9bc
000002f0: a6e8 fabc b7a6 c9bd 3e21 b5bb 0820 b5bd
00000300: f0d6 02be 3e31 833b 74dd 02bd 70e6 173d
00000310: e293 01bc 5a70 2b3d 3b42 6b3c fc09 b5bc
00000320: eeb1 b03d 9600 ffba 0f06 0e3d 8a85 95bd
00000330: 8ebc 30bd 836d b1bd e581 6ebd 978a 94bd
00000340: 9b66 b83c c8c6 ef3b 206a 413c 94a2 39bd
00000350: 0d04 293d 835f c1bd d77f 18bd 4a22 ea3b
00000360: f6f3 f2bb f853 23bd 5d16 9a3c 0ad6 9abd
00000370: d22d f33c 29d8 a43b 6a55 d8bd 29f0 e33c
00000380: 234b 023d 9bb1 46bc c167 e2bc 2912 0ebd
00000390: f0ed 133d b115 4c3c f481 44bd 4440 573d
000003a0: 505e 59bd 163e 123d 30fd 97ba 9fcf 073d
000003b0: 3b0f a7bd 79f7 0cbd cf97 06bd 0352 b93c
000003c0: defb 4a3c 1e09 a13d 5d1c b0bd f057 0c3d
000003d0: 2ba2 c6bc 5564 e73c 1b9f bc39 4d40 9fbd
000003e0: 4134 c8bc d198 8dbd 4b4f 8f3b f524 cb3c
000003f0: 2366 a4bc d43a 4dbe 0764 99bc 0850 283d
