quantization/saved_model/tflite_qat_model_2.tflite (tflite, 41896 bytes, 3 tensors)

sequential_9/quant_conv2d_18/Conv2D;sequential_9/quant_conv2d_18/LastValueQuant/FakeQuantWithMinMaxVarsPerChannel i1 [32, 3, 3, 1]
61 23 31 95 127 29 -18 118
80 89 6 123 34 -15 45 -67
-127 -112 3 -46 77 127 55 43
108 38 -49 -24 108 66 -102 113
60 -60 -25 127 -32 27 65 9
77 116 122 -47 127 44 108 52
81 87 74 -15 -88 -127 -35 -127
-116 -50 -47 -90 -1 -52 -64 -52
87 38 110 75 127 124 95 -21
86 119 -58 57 127 88 101 72
89 108 52 47 67 -45 -90 -7
-127 1 9 88 78 -11 3 85
-96 -127 -44 30 127 90 -21 -17
-8 4 22 106 -13 -94 127 -35
-85 103 -120 30 78 -20 15 -47
-22 -28 106 127 81 126 76 45
-80 53 44 -114 109 20 -127 -76
125 127 -44 122 98 123 104 77
38 64 100 28 35 33 -90 -127
-99 92 17 53 -79 127 16 -27
47 70 3 121 127 88 34 81
67 71 -23 -40 -69 -105 53 -63
-68 127 -17 -39 24 -36 -116 -71
-73 50 127 89 67 89 81 34
-2 26 -39 -63 -127 -77 114 3
67 127 -30 -15 -15 79 -49 -81
112 53 -88 -17 127 -89 -62 119
-127 -94 -74 84 1 90 62 50
41 0 -90 127 91 10 95 68
-114 49 106 66 83 59 31 -1
17 -5 -127 104 71 93 -58 9
91 -127 -94 40 113 45 -107 119
00000000: 3d17 1f5f 7f1d ee76 5059 067b 22f1 2dbd
00000010: 8190 03d2 4d7f 372b 6c26 cfe8 6c42 9a71
00000020: 3cc4 e77f e01b 4109 4d74 7ad1 7f2c 6c34
00000030: 5157 4af1 a881 dd81 8cce d1a6 ffcc c0cc
00000040: 5726 6e4b 7f7c 5feb 5677 c639 7f58 6548
00000050: 596c 342f 43d3 a6f9 8101 0958 4ef5 0355
00000060: a081 d41e 7f5a ebef f804 166a f3a2 7fdd
00000070: ab67 881e 4eec 0fd1 eae4 6a7f 517e 4c2d
00000080: b035 2c8e 6d14 81b4 7d7f d47a 627b 684d
00000090: 2640 641c 2321 a681 9d5c 1135 b17f 10e5
000000a0: 2f46 0379 7f58 2251 4347 e9d8 bb97 35c1
000000b0: bc7f efd9 18dc 8cb9 b732 7f59 4359 5122
000000c0: fe1a d9c1 81b3 7203 437f e2f1 f14f cfaf
000000d0: 7035 a8ef 7fa7 c277 81a2 b654 015a 3e32
000000e0: 2900 a67f 5b0a 5f44 8e31 6a42 533b 1fff
000000f0: 11fb 8168 475d c609 5b81 a228 712d 9577

sequential_9/quant_conv2d_19/Conv2D;sequential_9/quant_conv2d_19/LastValueQuant/FakeQuantWithMinMaxVarsPerChannel i1 [64, 3, 3, 32]
6 -56 -22 0 45 -53 -8 16
13 -56 -44 28 57 4 14 -25
-1 51 -21 -97 -6 -66 -19 -7
66 -39 -6 -9 -13 39 6 15
43 -99 -27 81 -31 36 -19 22
36 -45 -4 34 39 -39 35 8
-43 15 52 -16 65 -52 -10 82
-22 -15 -51 71 -40 19 -2 5
29 18 -13 9 26 68 29 45
32 7 -71 9 -31 40 37 -6
-1 -5 62 -26 -23 -59 39 -45
-59 -39 75 -44 -16 -41 48 -36
-9 -36 -48 30 -47 -3 43 -40
36 -20 45 59 15 -52 -7 -24
-42 -31 57 -78 -39 -45 22 55
48 7 -24 61 -93 -47 -46 36
59 -103 26 17 60 33 6 -44
-34 -28 -39 22 -21 -16 -13 32
-68 -1 17 -71 20 -94 -37 19
-63 16 1 75 -94 34 -9 -5
0 -29 23 24 15 30 33 35
48 -73 21 60 4 61 45 3
-69 -26 -34 13 60 -125 -20 2
-65 53 49 -22 -76 18 36 21
-24 83 -66 29 -6 23 39 -2
-72 -67 107 27 19 -26 -95 -84
52 -40 -43 -5 -75 -14 -21 -7
-100 -50 6 63 -94 -22 -27 5
55 -31 -75 76 -35 -7 18 18
-27 -71 127 -37 7 -44 -39 40
-12 64 -55 10 -103 -97 -60 45
-114 -4 -67 94 -38 47 53 26
00000000: 06c8 ea00 2dcb f810 0dc8 d41c 3904 0ee7
00000010: ff33 eb9f fabe edf9 42d9 faf7 f327 060f
00000020: 2b9d e551 e124 ed16 24d3 fc22 27d9 2308
00000030: d50f 34f0 41cc f652 eaf1 cd47 d813 fe05
00000040: 1d12 f309 1a44 1d2d 2007 b909 e128 25fa
00000050: fffb 3ee6 e9c5 27d3 c5d9 4bd4 f0d7 30dc
00000060: f7dc d01e d1fd 2bd8 24ec 2d3b 0fcc f9e8
00000070: d6e1 39b2 d9d3 1637 3007 e83d a3d1 d224
00000080: 3b99 1a11 3c21 06d4 dee4 d916 ebf0 f320
00000090: bcff 11b9 14a2 db13 c110 014b a222 f7fb
000000a0: 00e3 1718 0f1e 2123 30b7 153c 043d 2d03
000000b0: bbe6 de0d 3c83 ec02 bf35 31ea b412 2415
000000c0: e853 be1d fa17 27fe b8bd 6b1b 13e6 a1ac
000000d0: 34d8 d5fb b5f2 ebf9 9cce 063f a2ea e505
000000e0: 37e1 b54c ddf9 1212 e5b9 7fdb 07d4 d928
000000f0: f440 c90a 999f c42d 8efc bd5e da2f 351a

sequential_9/quant_dense_9/MatMul;sequential_9/quant_dense_9/LastValueQuant/FakeQuantWithMinMaxVars i1 [10, 1600] scale=0.002603075 zero_point=0
-0.023427675 -0.0520615 -0.0832984 -0.02603075 -0.0104123 -0.059870724 -0.039046124 -0.02603075
-0.018221525 -0.013015375 0.023427675 -0.023427675 -0.018221525 -0.0104123 0.0208246 0.002603075
-0.10151993 0.01561845 -0.0208246 -0.06507687 -0.0728861 -0.06767995 -0.0208246 -0.03644305
-0.002603075 0.018221525 0.0312369 -0.007809225 -0.111932226 0.049458425 -0.0104123 0.03644305
0.018221525 -0.0208246 0.018221525 0.04685535 0.018221525 0.007809225 -0.0520615 0.013015375
-0.08069532 -0.044252276 0.03644305 -0.049458425 -0.044252276 -0.03644305 0.018221525 -0.0624738
-0.0728861 -0.059870724 0.018221525 -0.018221525 -0.01561845 0.033839975 -0.059870724 0.01561845
0.00520615 0.049458425 -0.0416492 0.023427675 -0.0208246 -0.0312369 -0.07548918 -0.044252276
0.04685535 -0.033839975 -0.0208246 -0.028633825 -0.08069532 -0.09891685 -0.01561845 0.03644305
-0.00520615 0.007809225 0.018221525 -0.03644305 -0.03644305 0.007809225 -0.0624738 -0.0312369
-0.07809225 0.049458425 -0.039046124 -0.13275683 0.0104123 -0.08590148 -0.06767995 -0.0728861
-0.00520615 -0.08590148 0.028633825 -0.02603075 -0.1249476 0.0104123 0.033839975 0.06767995
0.018221525 -0.018221525 -0.059870724 -0.01561845 0.00520615 -0.013015375 -0.01561845 -0.0520615
-0.002603075 0.0208246 -0.0208246 0.0208246 -0.007809225 -0.07809225 -0.028633825 -0.007809225
0.02603075 -0.0937107 -0.0520615 0.04685535 0.03644305 -0.0416492 -0.039046124 -0.033839975
0.013015375 -0.03644305 -0.013015375 0.007809225 0.0104123 -0.096313775 -0.044252276 -0.15878758
-0.039046124 -0.023427675 0.0104123 -0.03644305 -0.007809225 -0.10151993 -0.018221525 -0.007809225
-0.03644305 -0.033839975 -0.002603075 -0.0937107 -0.002603075 -0.018221525 0.002603075 0.033839975
0.02603075 0.06507687 0.018221525 -0.06507687 -0.0208246 0.018221525 -0.023427675 -0.002603075
0.0104123 -0.00520615 -0.01561845 0.0104123 -0.007809225 -0.0416492 -0.03644305 -0.018221525
-0.00520615 0.049458425 0.023427675 -0.0832984 -0.07809225 0.04685535 -0.08590148 0.01561845
0.03644305 -0.013015375 -0.070283026 -0.0312369 0.02603075 0.013015375 0.0 0.033839975
-0.013015375 -0.002603075 0.039046124 -0.01561845 -0.04685535 -0.07809225 -0.07548918 -0.028633825
0.0104123 -0.0208246 0.049458425 0.00520615 0.028633825 -0.044252276 0.059870724 -0.049458425
0.0312369 -0.007809225 -0.039046124 -0.059870724 -0.028633825 -0.06507687 0.0104123 0.00520615
0.044252276 -0.033839975 0.00520615 -0.039046124 0.0416492 -0.028633825 0.0104123 0.002603075
-0.018221525 0.06767995 -0.0416492 -0.007809225 -0.049458425 -0.0312369 -0.01561845 0.0624738
-0.0728861 -0.049458425 0.0208246 -0.0416492 -0.01561845 0.0208246 0.039046124 0.033839975
0.0104123 0.002603075 0.03644305 0.059870724 0.007809225 0.0 -0.070283026 -0.002603075
0.013015375 -0.01561845 -0.013015375 0.039046124 -0.018221525 0.0 -0.03644305 0.0520615
0.0104123 -0.0312369 -0.07809225 0.023427675 0.002603075 -0.07548918 -0.002603075 -0.023427675
-0.0104123 0.05726765 -0.007809225 0.013015375 0.0104123 0.028633825 0.00520615 -0.07548918
00000000: f7ec e0f6 fce9 f1f6 f9fb 09f7 f9fc 0801
00000010: d906 f8e7 e4e6 f8f2 ff07 0cfd d513 fc0e
00000020: 07f8 0712 0703 ec05 e1ef 0eed eff2 07e8
00000030: e4e9 07f9 fa0d e906 0213 f009 f8f4 e3ef
00000040: 12f3 f8f5 e1da fa0e fe03 07f2 f203 e8f4
00000050: e213 f1cd 04df e6e4 fedf 0bf6 d004 0d1a
00000060: 07f9 e9fa 02fb faec ff08 f808 fde2 f5fd
00000070: 0adc ec12 0ef0 f1f3 05f2 fb03 04db efc3
00000080: f1f7 04f2 fdd9 f9fd f2f3 ffdc fff9 010d
00000090: 0a19 07e7 f807 f7ff 04fe fa04 fdf0 f2f9
000000a0: fe13 09e0 e212 df06 0efb e5f4 0a05 000d
000000b0: fbff 0ffa eee2 e3f5 04f8 1302 0bef 17ed
000000c0: 0cfd f1e9 f5e7 0402 11f3 02f1 10f5 0401
000000d0: f91a f0fd edf4 fa18 e4ed 08f0 fa08 0f0d
000000e0: 0401 0e17 0300 e5ff 05fa fb0f f900 f214
000000f0: 04f4 e209 01e3 fff7 fc16 fd05 040b 02e3
